…
2 43 44 45 46 47 48 49 50 51 52 53 54 55 56 57 58 59 60 61 62 63 64 65 66 67 68 69 70 71 72 73  (tensorflow) C:\\Users\\Admin\u0026gt;conda install git (tensorflow) C:\\Users\\Admin\u0026gt;git clone https://github.com/fchollet/keras.git (tensorflow) C:\\Users\\Admin\u0026gt;cd keras/examples/ (tensorflow) C:\\Users\\Admin\u0026gt;python mnist_mlp.py Using TensorFlow backend. 60000 train samples 10000 test samples _________________________________________________________________ Layer (type) Output Shape Param # ================================================================= dense_1 (Dense) (None, 512) 401920 _________________________________________________________________ dropout_1 (Dropout) (None, 512) 0 _________________________________________________________________ dense_2 (Dense) (None, 512) 262656 _________________________________________________________________ dropout_2 (Dropout) (None, 512) 0 _________________________________________________________________ dense_3 (Dense) (None, 10) 5130 ================================================================= Total params: 669,706 Trainable params: 669,706 Non-trainable params: 0 _________________________________________________________________ Train on 60000 samples, validate on 10000 samples Epoch 1/20 2019-05-17 08:33:14.461356: I C:\\tf_jenkins\\workspace\\rel-win\\M\\windows-gpu\\PY\\35\\tensorflow\\core\\platform\\cpu_feature_guar
…
